node {
  name: "input_1"
  op: "Placeholder"
  attr {
    key: "dtype"
    value {
      type: DT_FLOAT
    }
  }
  attr {
    key: "shape"
    value {
      shape {
        dim {
          size: -1
        }
        dim {
          size: 60
        }
        dim {
          size: 80
        }
        dim {
          size: 256
        }
      }
    }
  }
}
node {
  name: "net_vlad_layer_1/cluster_centers"
  op: "Const"
  attr {
    key: "dtype"
    value {
      type: DT_FLOAT
    }
  }
  attr {
    key: "value"
    value {
      tensor {
        dtype: DT_FLOAT
        tensor_shape {
          dim {
            size: 1
          }
          dim {
            size: 1
          }
          dim {
            size: 1
          }
          dim {
            size: 256
          }
          dim {
            size: 16
          }
        }
        tensor_content: "…"
      }
    }
  }
}
node {
  name: "net_vlad_layer_1/Shape_1"
  op: "Shape"
  input: "input_1"
  attr {
    key: "T"
    value {
      type: DT_FLOAT
    }
  }
  attr {
    key: "out_type"
    value {
      type: DT_INT32
    }
  }
}
node {
  name: "net_vlad_layer_1/strided_slice_1/stack"
  op: "Const"
  attr {
    key: "dtype"
    value {
      type: DT_INT32
    }
  }
  attr {
    key: "value"
    value {
      tensor {
        dtype: DT_INT32
        tensor_shape {
          dim {
            size: 1
          }
        }
        int_val: 0
      }
    }
  }
}
node {
  name: "net_vlad_layer_1/strided_slice_1/stack_1"
  op: "Const"
  attr {
    key: "dtype"
    value {
      type: DT_INT32
    }
  }
  attr {
    key: "value"
    value {
      tensor {
        dtype: DT_INT32
        tensor_shape {
          dim {
            size: 1
          }
        }
        int_val: 1
      }
    }
  }
}
node {
  name: "net_vlad_layer_1/strided_slice_1/stack_2"
  op: "Const"
  attr {
    key: "dtype"
    value {
      type: DT_INT32
    }
  }
  attr {
    key: "value"
    value {
      tensor {
        dtype: DT_INT32
        tensor_shape {
          dim {
            size: 1
          }
        }
        int_val: 1
      }
    }
  }
}
node {
  name: "net_vlad_layer_1/strided_slice_1"
  op: "StridedSlice"
  input: "net_vlad_layer_1/Shape_1"
  input: "net_vlad_layer_1/strided_slice_1/stack"
  input: "net_vlad_layer_1/strided_slice_1/stack_1"
  input: "net_vlad_layer_1/strided_slice_1/stack_2"
  attr {
    key: "Index"
    value {
      type: DT_INT32
    }
  }
  attr {
    key: "T"
    value {
      type: DT_INT32
    }
  }
  attr {
    key: "begin_mask"
    value {
      i: 0
    }
  }
  attr {
    key: "ellipsis_mask"
    value {
      i: 0
    }
  }
  attr {
    key: "end_mask"
    value {
      i: 0
    }
  }
  attr {
    key: "new_axis_mask"
    value {
      i: 0
    }
  }
  attr {
    key: "shrink_axis_mask"
    value {
      i: 1
    }
  }
}
node {
  name: "net_vlad_layer_1/Reshape_1/shape/1"
  op: "Const"
  attr {
    key: "dtype"
    value {
      type: DT_INT32
    }
  }
  attr {
    key: "value"
    value {
      tensor {
        dtype: DT_INT32
        tensor_shape {
        }
        int_val: 60
      }
    }
  }
}
node {
  name: "net_vlad_layer_1/Reshape_1/shape/2"
  op: "Const"
  attr {
    key: "dtype"
    value {
      type: DT_INT32
    }
  }
  attr {
    key: "value"
    value {
      tensor {
        dtype: DT_INT32
        tensor_shape {
        }
        int_val: 80
      }
    }
  }
}
node {
  name: "net_vlad_layer_1/Reshape_1/shape/3"
  op: "Const"
  attr {
    key: "dtype"
    value {
      type: DT_INT32
    }
  }
  attr {
    key: "value"
    value {
      tensor {
        dtype: DT_INT32
        tensor_shape {
        }
        int_val: 256
      }
    }
  }
}
node {
  name: "net_vlad_layer_1/Reshape_1/shape/4"
  op: "Const"
  attr {
    key: "dtype"
    value {
      type: DT_INT32
    }
  }
  attr {
    key: "value"
    value {
      tensor {
        dtype: DT_INT32
        tensor_shape {
        }
        int_val: 1
      }
    }
  }
}
node {
  name: "net_vlad_layer_1/Reshape_1/shape"
  op: "Pack"
  input: "net_vlad_layer_1/strided_slice_1"
  input: "net_vlad_layer_1/Reshape_1/shape/1"
  input: "net_vlad_layer_1/Reshape_1/shape/2"
  input: "net_vlad_layer_1/Reshape_1/shape/3"
  input: "net_vlad_layer_1/Reshape_1/shape/4"
  attr {
    key: "N"
    value {
      i: 5
    }
  }
  attr {
    key: "T"
    value {
      type: DT_INT32
    }
  }
  attr {
    key: "axis"
    value {
      i: 0
    }
  }
}
node {
  name: "net_vlad_layer_1/Reshape_1"
  op: "Reshape"
  input: "input_1"
  input: "net_vlad_layer_1/Reshape_1/shape"
  attr {
    key: "T"
    value {
      type: DT_FLOAT
    }
  }
  attr {
    key: "Tshape"
    value {
      type: DT_INT32
    }
  }
}
node {
  name: "net_vlad_layer_1/add_1"
  op: "Add"
  input: "net_vlad_layer_1/Reshape_1"
  input: "net_vlad_layer_1/cluster_centers"
  attr {
    key: "T"
    value {
      type: DT_FLOAT
    }
  }
}
